geometricus/models/ShapemerLearn_RADIUS-5_RADIUS-10_KMER-8_KMER-16_68_32_10.pt (torch, 28625 bytes, 24 tensors)

linear_segment.0.weight f4 [32, 68]
000000 be 30 9e 3d fe 33 94 3d df 17 5f be 7d 50 e6 3d
       0.077241406 0.07236479 -0.2178645 0.11245821
000010 c5 2a 75 3e 3d 66 7e 3e c0 04 b5 bd 28 16 44 3e
       0.23942097 0.24843688 -0.088387966 0.19149077
000020 ed 46 ce 3d 2a 77 44 3d ed 1e 2e be 53 6e 08 3c
       0.10072122 0.047965206 -0.17003985 0.008327085
000030 e0 06 92 3c 6c 42 58 be 75 ac 62 be 9b 5a 35 3e
       0.017825544 -0.21119088 -0.221361 0.17710344
000040 9b 62 43 bd dd b8 c6 bd 9d 26 fd bd ee 10 3b be
       -0.04770146 -0.097032286 -0.123608805 -0.18268177
000050 35 cf 01 be 20 56 ae bd 46 e4 92 be a9 c6 53 bd
       -0.126767 -0.08512521 -0.28689784 -0.05170313
000060 29 1a 75 be 2a 03 d2 3d a4 5a 26 ba d1 e9 18 3e
       -0.2393576 0.1025451 -0.0006345904 0.14932944
000070 2c f1 5c be 67 63 0d 3d c0 b8 48 be 47 62 d4 3c
       -0.21576375 0.034518626 -0.19601727 0.025925769
000080 0a ac e2 bc 52 9c 90 bc 1a 41 79 3e 48 99 8e bf
       -0.027669925 -0.017652664 0.2434124 -1.1140528
000090 7c db dc bd 94 85 61 3d 73 d4 ac 3c 18 3f a0 bd
       -0.10784051 0.05505903 0.021097397 -0.07824534
0000a0 93 23 15 3d e3 74 e2 3d 73 c1 aa bd 02 b0 e3 3d
       0.03641088 0.110574506 -0.08337679 0.11117555
0000b0 f8 93 6d 3e fd cf 17 3c bf 47 9b 3c b7 06 3e 3e
       0.23200977 0.009265897 0.01895511 0.18557249
0000c0 45 bb 97 bd c1 b1 4e bd 0c 47 02 bd 18 69 30 3f
       -0.07408766 -0.050462488 -0.031806037 0.6891036
0000d0 d2 60 0c 3e 52 c9 0e be 3b 5d 80 3e af 1a 2e 3f
       0.13708809 -0.13943985 0.2507113 0.68009466
0000e0 e3 d4 1e 3f 39 de 41 3e e0 7a 27 3c 46 6e 3c 3a
       0.6204359 0.18932427 0.010222167 0.0007188063
0000f0 c8 5c a1 b9 27 2c d0 bd fe 7c d9 3b 84 54 9f bd
       -0.0003077744 -0.101646714 0.0066372147 -0.07779792
000100 3b 3f 42 bd 24 c7 f6 bc 86 1b 09 3e 6d 72 eb 3d
       -0.047423583 -0.030124255 0.13389406 0.11496434
000110 1b 50 8f 3d b7 4b c1 3c 1b 55 41 3e 37 ba 4a 3d
       0.06997701 0.023595674 0.18880121 0.049493995
000120 e1 ac 92 bd ea f7 78 bd 57 b9 43 bd 59 1f 62 bc
       -0.0716188 -0.060783304 -0.047784176 -0.013801419
000130 db d7 d1 bd 72 74 0e bd 7f 1a 2e 3d 6e ad 1b 3d
       -0.10246249 -0.03477902 0.042505737 0.038007192
000140 8f 6d d6 3c c0 68 90 bd 5a 8b 94 3c 52 96 32 3d
       0.026175288 -0.070512295 0.018132854 0.043600388
000150 15 f4 f3 bc a0 d0 9f 3e a7 bc 8a 3d ea 41 ab 3e
       -0.029779473 0.31213856 0.06774264 0.33448726
000160 cc 35 9b 3d 7a 4b 30 bd 85 d0 79 be a7 24 0f be
       0.0757862 -0.04304073 -0.2439595 -0.13978826
000170 7c 56 c3 bd 21 0d 2e bd 41 14 7c 3b d1 e6 a7 3d
       -0.0953798 -0.04249299 0.003846422 0.081983216
000180 ce 62 43 3d 7c 73 95 bb 2e 49 ca bc 39 8e 93 3d
       0.04770165 -0.004560886 -0.024693098 0.07204861
000190 4b c2 0c bd 48 e8 3b bd 40 75 69 3f 3b a3 82 be
       -0.03436498 -0.045875818 0.91194534 -0.2551516
0001a0 0a 66 e5 3d 27 7e dc 3e fd 3c 03 3f c1 32 a0 3e
       0.11201103 0.43064997 0.51264936 0.31288722
0001b0 7d b6 bc bc 90 17 0b bd 4e d0 dc 3b 38 e2 59 bd
       -0.023036236 -0.033958018 0.006738699 -0.053194255
0001c0 b9 19 3c be d1 14 33 bb 3d bd 06 3e 43 61 f1 3b
       -0.18369187 -0.002732564 0.13158126 0.007366331
0001d0 ed 11 c8 3d 03 a8 95 3d 32 41 23 bd d7 c2 45 3f
       0.09769044 0.07307436 -0.039857097 0.77250427
0001e0 6e 78 93 3e 7f 86 9f 3f 0b 8c a0 3d 73 1a a2 3e
       0.28802818 1.246292 0.07839211 0.31660804
0001f0 0f c1 61 3e f9 a5 ac be ac 77 76 be c5 ac a9 be
       0.22046302 -0.33720377 -0.24069089 -0.33139625
000200 b3 43 c6 bd e1 52 51 be 5d 43 22 3e 2e f3 b8 bc
       -0.09680881 -0.20441772 0.1584601 -0.022576895
000210 f3 56 2c 3e a7 8e a0 3d b2 cf 9d 3c 23 5c 13 be
       0.16830043 0.07839709 0.019264076 -0.14390616
000220 67 d9 24 3c c2 91 20 bb fb 70 c2 bc 1a a8 21 3c
       0.010061598 -0.002450094 -0.023735514 0.009866739
000230 6f 9e 50 bd 6b 03 24 3d 6b e6 04 3d af 54 c7 3d
       -0.050932344 0.040042322 0.032446306 0.09732949
000240 ab 17 8f 3c f2 35 11 bd d8 23 b5 bd b4 16 c7 3d
       0.01746734 -0.035451837 -0.08844727 0.09721127
000250 62 78 cb 3b 21 5a d8 3c 1a 3b 82 bd 89 fb 3c bc
       0.006209419 0.026410164 -0.06358929 -0.01153458
000260 e8 e1 07 3d 82 93 14 bd 20 ed 44 3e 18 9a 4d be
       0.033174425 -0.036273487 0.19231081 -0.20078313
000270 53 55 ab 3d 53 ea 2d bc 14 3f 86 3d df 5d 4b bd
       0.08365884 -0.010614949 0.06555 -0.04965007
000280 38 fd 77 3d d2 cb 32 bd ce 30 b7 bb f5 6a 67 3c
       0.060544223 -0.04365141 -0.005590535 0.014124622
000290 b6 97 a6 3b 69 ce da 3b 08 88 c5 bd 04 8c e2 3c
       0.0050840033 0.006677438 -0.096450865 0.027654655
0002a0 34 55 db 3b 41 84 a7 bd fe 26 fa 3d a8 36 7a be
       0.0066935066 -0.08179522 0.122144684 -0.24434912
0002b0 f6 78 78 bd eb a0 ab 3d 1c ae 52 3e 88 1d 2b 3d
       -0.060662232 0.08380302 0.2057423 0.04177621
0002c0 8e 19 22 3e 4c 77 03 be 8d 82 8b 3d df 03 1d bc
       0.15830061 -0.12838477 0.0681201 -0.0095834425
0002d0 8b 71 a9 bd 5a dd a5 3d c6 cc fb 3c 19 5b bf bc
       -0.0827361 0.0809886 0.030737292 -0.023358868
0002e0 30 7f 3b bd e7 81 e0 3b b4 35 b4 bd 2b 87 5c be
       -0.045775592 0.006851423 -0.087993056 -0.21535937
0002f0 15 83 d3 3e 6f 19 b4 be 09 33 65 be 95 b0 48 be
       0.41310945 -0.35175654 -0.2238275 -0.1959861
000300 9a 31 9f 3b 1b cc be be a9 ac b0 3d bd a3 09 be
       0.004858208 -0.37265095 0.08626682 -0.13441367
000310 04 9a 53 bd 35 90 2c be 83 9b 0b 3e 89 a0 d7 bb
       -0.051660553 -0.16851886 0.13633542 -0.0065804166
000320 4c 9e 66 3d e0 45 ba 3e 3b 1d 41 3e 76 7a d6 bf
       0.056303307 0.36381435 0.18858807 -1.6756122
000330 e3 d0 e2 3d b3 d6 6c bd 0d 21 8e bd 7f 76 25 bd
       0.11074998 -0.05782194 -0.06939898 -0.04039621
000340 bd 76 96 bd a2 2b 07 bd 97 21 08 3e 59 78 5b bc
       -0.07346866 -0.033000596 0.13294064 -0.013395392
000350 b9 4e 84 b9 67 8d a7 bc 1c 32 a6 3d 2f 6d 2d 3c
       -0.00025235655 -0.020453168 0.08115026 0.010585113
000360 53 9d cc bc bb da a4 3d 21 9f 00 bd 0d df 86 bc
       -0.024977362 0.08049532 -0.031401757 -0.01646378
000370 87 62 84 bd 18 24 93 3e 84 08 24 3f b6 00 1e 3f
       -0.06464105 0.28738475 0.64075494 0.61719835
000380 a6 4d 00 3d 64 ee af 3d 4b 09 76 be 42 74 20 bd
       0.03132405 0.08590391 -0.24026982 -0.039173372
000390 d8 bc 91 be 34 7b f5 3c a1 29 a4 3b 74 73 a7 3c
       -0.2846439 0.029965974 0.0050098454 0.020440795
0003a0 ee 4c cd bd c0 2d 4e bc 77 7d 58 3e 16 cd 11 3e
       -0.10024439 -0.01258415 0.21141611 0.1423839
0003b0 1b dd 69 be 60 2d e8 3d cf 4a 16 be 36 ee 63 3e
       -0.22838251 0.113367796 -0.14676975 0.22258839
0003c0 f0 6d 84 bf 90 82 18 3d 1b 28 60 bd bc 08 76 3e
       -1.034605 0.03723389 -0.054725748 0.2402677
0003d0 2c 40 21 bd 21 8a a4 bd 0e 87 1a bc ae 90 07 3d
       -0.03936784 -0.080341585 -0.009431614 0.03309696
0003e0 d8 2e 93 bd ba ce 0c 3e 84 dc 58 3d 34 e3 02 be
       -0.07186669 0.13750735 0.052944675 -0.12781984
0003f0 37 81 88 bd 20 8e 86 3d 1b 41 07 be e0 38 03 be
       -0.06665271 0.06570077 -0.1320843 -0.12814665

linear_segment.0.bias f4 [32]
000000 d5 97 52 bd ca f9 9f bd 62 ac c7 bd 6b db c6 3d
       -0.05141433 -0.07811315 -0.09749676 0.097098194
000010 dd be f1 bd 6a 99 bb 3d 84 a5 ac 3d 02 68 c2 3d
       -0.118039824 0.09160121 0.08430007 0.09492494
000020 be 80 d9 bd fd 1b 81 bd 58 46 e8 bb 73 6f c8 3b
       -0.10620259 -0.063041665 -0.0070884638 0.0061168014
000030 d6 3c 33 3d 21 70 ba bd ac 77 d0 3c ab 3c ae 3d
       0.04375919 -0.09103418 0.025447689 0.08507665
000040 e0 13 99 bd 8e 46 66 bd b3 e1 51 3d ec db b5 3d
       -0.07474494 -0.05621963 0.051240634 0.088798374
000050 75 33 a7 bd 35 2f 2b 3d 58 64 40 bc e7 04 d7 bc
       -0.081641115 0.041793067 -0.011742674 -0.026247455
000060 42 13 97 bd a9 99 59 3d 2a 9a 3f bd a5 c4 c0 3c
       -0.0737672 0.053125057 -0.04677788 0.023531267
000070 1d 35 37 3b ef 1c b0 bd 54 2c 80 3d e4 9e 87 bd
       0.0027955242 -0.08599269 0.06258455 -0.06622103

linear_segment.1.weight f4 [32]
000000 6b d6 43 3f 29 43 53 3f 04 11 54 3f ae 72 54 3f
       0.7649905 0.82524353 0.82838464 0.8298749
000010 d9 c4 52 3f d4 22 6d 3f 26 66 8a 3f 4a 32 4f 3f
       0.82331616 0.9263127 1.0812423 0.8093611
000020 2e e1 2e 3f 85 84 47 3f b7 6d 8c 3f 46 a2 a1 3f
       0.68312347 0.77936584 1.0970982 1.2627647
000030 5d c2 86 3f f8 e4 2e 3f e8 67 57 3f 6e 4c 8f 3f
       1.0528065 0.6831813 0.84142923 1.11952
000040 b5 bc 84 3f 65 ae 1c 3f c8 e6 7d 3f 78 f2 86 3f
       1.0370089 0.61203605 0.9918027 1.0542746
000050 76 ec 76 3f 9d 28 57 3f 66 66 84 3f b1 d2 65 3f
       0.9645456 0.84046346 1.034375 0.89774615
000060 b5 ec 67 3f 6a a5 48 3f 39 40 4c 3f 9b 73 54 3f
       0.9059556 0.783774 0.79785496 0.829889
000070 06 ab 4a 3f b3 0a 92 3f d7 0e 6a 3f e6 97 8a 3f
       0.7916721 1.1409515 0.91428894 1.0827606

linear_segment.1.bias f4 [32]
000000 f3 5b 9e 3e 14 c8 4e 3e a8 bc bd be e2 14 9b 3b
       0.30929527 0.20193511 -0.37057996 0.004732714
000010 ac a2 da 3e 7b ff 81 3f 60 43 a8 bd ac 94 ed be
       0.42702234 1.0156091 -0.08215976 -0.4640249
000020 d4 6d c9 3f c2 ce cc 3e 2d 74 70 bc 61 c6 a6 3c
       1.5736642 0.40001494 -0.014676136 0.020358266
000030 44 91 50 3e f8 ce 83 3e 96 db de 3e 2b 90 15 3f
       0.20367914 0.25743842 0.43526906 0.5842311
000040 fc d7 14 3f 72 f6 5d bd 57 59 bc 3d 57 47 7f 3f
       0.58142066 -0.054190107 0.09196728 0.9971823
000050 6a ac 10 3e d3 96 76 be eb e4 3f 3e 92 73 03 3f
       0.14128271 -0.24080972 0.18739669 0.5134822
000060 5a 36 d6 be bb 3b be 3e 9d b4 87 be 9d aa c5 bd
       -0.41838342 0.37154946 -0.26504984 -0.096516825
000070 c4 fa 2a 3e 03 99 06 3f 0e 78 9d be a3 9c 26 be
       0.16697222 0.5257723 -0.30755657 -0.1627069

linear_segment.1.running_mean f4 [32]
000000 75 98 49 41 4a 17 12 42 32 16 cf 3f c5 12 b0 c1
       12.599721 36.522743 1.6178648 -22.009165
000010 74 f7 57 42 76 38 53 41 89 29 47 40 bf ec 74 c1
       53.991653 13.201284 3.11191 -15.307799
000020 19 95 87 3f 1b 83 4c 41 9f 60 ef 41 06 b8 24 c2
       1.0592376 12.782008 29.922178 -41.17971
000030 10 f2 bb c2 03 5a e4 c0 b3 10 56 42 71 8a ee c1
       -93.97278 -7.1359878 53.516308 -29.817598
000040 f9 9c 27 c1 72 27 14 c2 bf cb f0 41 dd b1 78 c1
       -10.475823 -37.03852 30.099485 -15.543424
000050 2b be fa c1 ce 56 96 41 bd e4 9d c0 d7 cb 60 42
       -31.342855 18.792385 -4.934172 56.199062
000060 ee 34 33 be b3 0d 88 c2 1a 43 80 3f 6c 4c 40 bf
       -0.1750066 -68.02676 1.0020478 -0.7511661
000070 58 ef a8 c1 c6 88 46 40 8f ea 81 3e f8 83 e4 c0
       -21.116867 3.102098 0.25374267 -7.1411095

linear_segment.1.running_var f4 [32]
000000 c0 db 45 41 9e a8 b3 40 73 11 ed 40 1e 98 0d 41
       12.36615 5.614333 7.40838 8.849638
000010 b6 19 16 41 93 30 ca 3f f9 4d 16 40 15 aa 7d 40
       9.381277 1.5796074 2.348509 3.963506
000020 4f 41 8b 3e ae 2c af 40 86 7e b9 41 15 60 d2 40
       0.27198264 5.474204 23.186779 6.574229
000030 6c 55 05 42 d3 d8 cd 40 df 8c a6 40 85 f1 59 40
       33.33342 6.432718 5.204696 3.4053662
000040 9d db 2e 3f d3 a1 bf 40 bd a7 42 41 b9 bc 93 40
       0.68303853 5.988504 12.165952 4.6167874
000050 0c 00 04 40 39 63 a7 40 51 9e 6a 40 d3 87 a7 41
       2.0625029 5.230862 3.6659129 20.94132
000060 ee f8 1e 41 e7 6c 3d 41 1d e5 31 3f 33 84 a5 41
       9.935774 11.8390875 0.69490224 20.68955
000070 28 b3 b5 40 69 f2 3d 40 ae d5 35 40 a5 93 8f 40
       5.6781197 2.9679205 2.841167 4.486773

linear_segment.3.weight f4 [32, 32]
000000 0b 31 92 3e 81 c2 a3 3d 9d 47 d6 3d 1d 9d a9 3d
       0.28553042 0.07996083 0.10462878 0.0828192
000010 b0 67 61 bd 2f 8a b0 3e 41 46 a3 bc 76 e5 df bd
       -0.055030525 0.34480426 -0.01993096 -0.10932438
000020 0c fd 17 be 26 45 be 3d 30 c4 88 3e 00 7a f8 bd
       -0.14842623 0.09290533 0.2671218 -0.12132645
000030 37 ad 39 3e 5e 0f 56 3e fc 5f 53 3c 2f 17 8f bb
       0.18132482 0.209043 0.012901302 -0.0043667774
000040 1d e5 d0 bd 3c 21 38 3d 98 f2 8f be e8 17 d9 3e
       -0.1019995 0.04495357 -0.28114772 0.42401052
000050 a3 4c 80 be 81 23 96 be 59 97 04 3e 28 28 5d 3e
       -0.2505847 -0.29323962 0.1294836 0.2159735
000060 6f ed ac be ba 9d a5 bc 73 72 e0 3d f0 bc c8 bd
       -0.33774897 -0.020216811 0.109593295 -0.09801662
000070 be 0f 9f 3d a0 4d 0c 3d 07 58 7c 3d d7 e1 5a 3d
       0.077666745 0.034253716 0.061607387 0.053438034
000080 2c d9 3a be dc 83 60 3c 7b 89 26 bd b5 f6 b7 3d
       -0.18246907 0.013703313 -0.040658455 0.089826025
000090 04 56 d2 3e 6c b4 e3 3c b8 a5 1f be 89 d4 29 3e
       0.4108125 0.027795993 -0.1559056 0.16584982
0000a0 39 ca 0c be 4e 73 b7 3e 16 f8 a3 be 19 d8 cd 3e
       -0.13749017 0.35830158 -0.32025212 0.40203932
0000b0 81 3b 9f be d2 fe ab 3d b4 0b 56 be 7c 27 ef bd
       -0.31100085 0.083982125 -0.20902902 -0.11677453
0000c0 03 15 d4 3e 43 92 09 3c 2e 25 13 bd a9 3f 9e bd
       0.4142228 0.008396688 -0.03592413 -0.07726986
0000d0 f1 e6 ab 3b 39 3e d0 3c a9 c4 06 be 0f 3c d9 3b
       0.005246036 0.025420295 -0.13160957 0.006629474
0000e0 72 ec a4 bd 32 36 a8 3d 7e af b0 be 80 dd b3 3d
       -0.08052911 0.08213462 -0.3450889 0.08782482
0000f0 66 00 6b 3d aa 2d 79 bd ae ca 78 3d 4f 61 bc 3d
       0.057373427 -0.060834564 0.060740165 0.09198248
000100 a1 52 ab 3d 10 6b b0 3e 7d ce 68 3e 56 53 1c bd
       0.083653696 0.34456682 0.22735019 -0.038165413
000110 95 e6 5e bd ac 88 11 be 73 07 43 3c 17 2d 86 be
       -0.05441912 -0.14212292 0.0119036315 -0.26206276
000120 5a 8e 17 be 07 7d 03 3e e4 fb 51 3e dd 33 73 bd
       -0.14800397 0.12840663 0.20506245 -0.059375633
000130 8a e6 23 bd 72 e9 9b 3c 9e 3b d2 3d de 3a be 3d
       -0.04001478 0.019032214 0.10265277 0.09288572
000140 3d bb 05 bd 33 4b 24 be 49 92 9a 3e 67 31 73 3e
       -0.032649267 -0.16044311 0.30189732 0.23749314
000150 9a e8 ed bd 95 6d 7b 3e 69 86 5b 3e 71 f5 11 3f
       -0.11616631 0.24553521 0.21437992 0.5701514
000160 22 b2 7d bd ff 72 97 bd 1c 8c 9f be fb a0 c4 bd
       -0.06193746 -0.07394981 -0.31161582 -0.09601017
000170 70 55 c4 3c 87 14 f8 3c 73 38 4d bd 26 a9 1b 3e
       0.023966521 0.030283226 -0.050102662 0.15201244
000180 03 0b 31 be c0 93 85 bc 76 02 d4 bc 74 ac 21 3c
       -0.17289357 -0.016305804 -0.02588008 0.009867776
000190 98 03 c6 bd 3e 5f 03 3f 62 3b 1b bd 09 e7 46 bd
       -0.09668654 0.51317203 -0.03789843 -0.048560176
0001a0 e2 25 89 3e 75 65 3b bb 28 c3 9d 3d 61 32 8a 3d
       0.26786715 -0.0028594409 0.07703239 0.0674789
0001b0 51 b9 16 3d ba d6 03 be a5 be 3c be e2 cd 11 be
       0.036797825 -0.1287488 -0.184321 -0.14238694
0001c0 cf cb 8e 3e 11 31 fa 3d e5 a3 5d 3d 39 f5 ff 3e
       0.2788987 0.1221639 0.05411138 0.49991778
0001d0 c5 c2 92 3d 8f 21 e4 bd fe 2f 87 bd 82 f5 c7 bd
       0.071660556 -0.11139213 -0.06600951 -0.09763624
0001e0 16 e1 a9 3d d3 a4 de 3d 33 3b 84 bd 7f b2 91 bc
       0.08294885 0.108712815 -0.06456604 -0.017785309
0001f0 f6 0b 9e be e1 dc dc 3d 0a 0b ee 3d 8f a1 90 be
       -0.308685 0.10784317 0.11623199 -0.2824826
000200 34 c2 89 3e f5 05 a4 3e 32 41 28 bd dc e4 8a be
       0.26905978 0.32035795 -0.0410778 -0.2712773
000210 4f 99 88 3d c0 c8 65 3d 22 8e 67 3e 35 b9 45 be
       0.06669866 0.056099653 0.22612813 -0.19308932
000220 3c 15 15 be a3 c5 1e be 4c 5a 97 3d 84 e4 47 be
       -0.14558882 -0.1550508 0.0739027 -0.19520766
000230 9f 2a c9 3d 54 57 16 be 60 b2 9e 3d 14 24 bf 3e
       0.098225825 -0.1468175 0.07748866 0.37332213
000240 23 02 0a be 06 aa 27 bd 2b 43 cb 3c c9 d9 a3 3d
       -0.13477378 -0.04093363 0.024812302 0.080005236
000250 71 1c 40 3e 76 9d 89 3c c8 20 b9 3e 26 2c bf bd
       0.1876085 0.016798716 0.36157823 -0.093345925
000260 b0 72 b6 bd 6f 83 56 be 71 fb 76 3c 2d 00 67 3e
       -0.08908594 -0.20948575 0.015074597 0.22558661
000270 f3 0d 0e be e2 49 8f be cf a5 8a 3e 27 ac 05 3e
       -0.13872509 -0.27986056 0.27079627 0.13053952
000280 e2 3d 64 bc 39 70 60 be c8 b9 a8 bd 2a eb dc 3c
       -0.01393077 -0.2191781 -0.0823856 0.026967604
000290 71 63 b5 bd 6b a1 8b 3e 46 3d 06 3f a2 a6 b6 bd
       -0.088568576 0.2727159 0.52437246 -0.089185014
0002a0 00 17 2d bd ac 46 a0 3d b6 d1 df 3e 62 9f 1f 3e
       -0.042258263 0.078259796 0.43714684 0.15588143
0002b0 76 9e 94 3e 06 db 11 be ae 49 d6 bd f8 05 65 3e
       0.29027146 -0.14243707 -0.10463272 0.22365558
0002c0 1b 63 b9 bd 0c 6a a9 3d 54 09 2b bd 59 d2 fc 3b
       -0.09052106 0.0827218 -0.041756943 0.007715505
0002d0 e5 e6 15 3e 16 fa 72 3d 43 6f 93 bc cd b7 c0 bc
       0.1463886 0.05932053 -0.01799739 -0.023525143
0002e0 df 2f 49 bb 04 3b a0 bb e8 d7 55 3d fa 46 5a 3c
       -0.00306987 -0.0048898477 0.052207857 0.013322586
0002f0 20 63 4b 3e a2 12 d7 3d 28 d3 cf 3e 6e 6c bd 3d
       0.19862032 0.10501601 0.40590787 0.09249197
000300 e5 64 7c be fe 28 a8 bb 64 0c 8c bc 7a 35 21 3e
       -0.24647863 -0.00513184 -0.017095752 0.15743056
000310 f3 f6 89 3d 9a 11 d0 3d 4e 04 1f bd 03 b5 f4 be
       0.06736555 0.10159607 -0.038822465 -0.4779435
000320 2a 51 5c 3d 8c b8 11 3e b3 9b 60 3e 76 a7 c1 3e
       0.05378834 0.14230555 0.21934395 0.37823075
000330 fe 6f 8e bb b7 1a ae bd ed a1 90 be 4b cf e9 bd
       -0.0043468466 -0.08501189 -0.2824854 -0.11416491
000340 dd af ef 3e cf 1f 33 3d fa b2 33 bc b5 db f1 bc
       0.4681386 0.043731507 -0.010967964 -0.02952371
000350 06 9a a9 bc 0c f3 5a 3e dd d4 81 be 18 13 bb 3c
       -0.020703327 0.21381778 -0.25357714 0.022836253
000360 1b b0 26 3e 3c 6a 25 3e 61 4c 66 be 62 33 8d be
       0.16278116 0.16153806 -0.22490074 -0.27578264
000370 0c 1f aa 3d 80 c0 d9 bd 14 69 96 be 90 c9 73 be
       0.08306703 -0.106324196 -0.29377043 -0.23807359
000380 20 a7 9e bd c0 1d 36 3b 42 f0 c5 3d 72 6a 6e be
       -0.0774672 0.0027788728 0.09664966 -0.23282793
000390 91 1a 6d bc 31 58 08 bd 12 b6 b6 bd 8f 6c a9 3c
       -0.014471666 -0.03328723 -0.08921446 0.020681648
0003a0 d5 9b 30 be 34 07 43 be cb 6f fc bb c2 23 f5 bd
       -0.17246945 -0.19045717 -0.0077037564 -0.11969711
0003b0 98 a3 d8 3d 99 ae 83 be 91 01 02 3f 8d 74 fa 3d
       0.10578078 -0.25719145 0.5078364 0.122292615
0003c0 d8 f7 98 be 87 c0 ca 3b de a2 8f 3e a8 d4 57 3e
       -0.2987659 0.006187502 0.28053945 0.21077216
0003d0 b6 81 5b 3e 0e e0 7c 3e d1 61 d0 bd 0b 15 37 3e
       0.214362 0.24694845 -0.10174907 0.17879121
0003e0 2c a7 ae bd e3 03 2d be a1 b6 ec 3c 9a 65 24 be
       -0.08527979 -0.16896014 0.028895678 -0.16054383
0003f0 6c 7b d0 3e 1e aa 83 bb f0 b5 be 3d 51 26 6a 3e
       0.40719163 -0.0040180823 0.093120456 0.22866179

linear_segment.3.bias f4 [32]
000000 cd cc bb 3d e3 0c 24 be 93 8f 54 bc 38 6d 00 3c
       0.09169922 -0.16020541 -0.012973684 0.00783854
000010 68 5e e5 3c f1 5d 19 3e df 0d 1d be 64 02 e5 3d
       0.027999118 0.14977242 -0.15337323 0.111820966
000020 fc d8 02 be 2c 88 19 bd 1e 40 2d be d7 ec 01 be
       -0.12778085 -0.03748338 -0.1691899 -0.12688003
000030 df 53 0c 3d c9 45 d6 3d 45 be 26 be 07 6d 8e bd
       0.034259673 0.10462529 -0.1628352 -0.06954389
000040 a7 95 29 3c c0 33 b1 bd 02 4b 23 be bf 24 05 3d
       0.010350621 -0.08652449 -0.15946582 0.032505747
000050 0c de f8 3d 3c 62 93 bd ef bb 80 3d ab 1c 77 bb
       0.12151727 -0.07196471 0.062858455 -0.0037706296
000060 91 85 b8 3d 03 0c ac 3d 49 ad 23 be 07 22 b7 3d
       0.09009851 0.084007286 -0.15984072 0.08942037
000070 54 84 24 3e 47 e1 21 3e dd ac 4c 3d 45 a0 eb 3d
       0.16066104 0.15808593 0.049969543 0.11505178

linear_segment.4.weight f4 [32]
000000 6c 91 60 3f ba 01 a2 3f fe dc 8b 3f ac 8d 8a 3f
       0.87721896 1.2656777 1.0926816 1.0824485
000010 ff 62 8e 3f 73 d4 7f 3f eb 46 8c 3f 9e a4 48 3f
       1.1123961 0.99933547 1.0959142 0.78376186
000020 4d a1 3d 3f a2 a0 60 3f 8b b5 40 3f d9 6a 8c 3f
       0.7407425 0.87745106 0.7527701 1.0970107
000030 ce 21 6b 3f 5b f2 89 3f 3c 71 50 3f 7f 5b 4e 3f
       0.91848457 1.0777086 0.8142278 0.8060836
000040 f5 79 8a 3f 33 9f 6c 3f 79 e1 3a 3f 44 b5 83 3f
       1.0818468 0.9243042 0.73000294 1.0289693
000050 44 1b 7c 3f 8f 28 5c 3f 48 23 9f 3f cb 39 70 3f
       0.98479104 0.8599939 1.2432642 0.93838185
000060 c4 40 57 3f 08 9f 81 3f e6 f5 7f 3f 9f c9 6d 3f
       0.840832 1.0126657 0.99984586 0.92885774
000070 a5 05 6f 3f 1b 6c 8e 3f 47 4f 78 3f 55 e2 53 3f
       0.9336799 1.1126741 0.9699597 0.8276723

linear_segment.4.bias f4 [32]
000000 36 7d 2f 3e 86 91 13 be 92 81 58 be c4 7b 45 3e
       0.17137608 -0.14410982 -0.21143177 0.19285494
000010 27 3a 47 be 6b 1a 9e bd 3f a8 02 be eb 01 a8 3e
       -0.19455777 -0.077198826 -0.12759493 0.32813963
000020 44 65 29 3e c6 8f 6c 3e 3d 1b 8c 3e 19 cf 78 3e
       0.16542536 0.2310172 0.2736453 0.24297751
000030 b9 f9 c6 3e 55 88 04 bc 32 f2 5d 3f 55 ea 0f 3f
       0.38862398 -0.008089145 0.86697686 0.5621694
000040 ad 51 a5 3e bf 3c 23 3f 13 d5 58 3e 32 4a c9 be
       0.32288876 0.63764566 0.21175031 -0.3931442
000050 a0 9e 20 bd 0d ec af 3e 4f cb a4 3e c1 22 47 bf
       -0.039213777 0.3435978 0.32186362 -0.77787405
000060 01 77 7a 3e 5f 39 47 3e 2e f2 1b be 8d a2 a5 3e
       0.24459459 0.19455479 -0.15229103 0.3235058
000070 24 ac 6a 3e 2c f9 07 3d f6 94 1d bc b0 7e 47 3f
       0.22917229 0.033196613 -0.009618035 0.77927685

linear_segment.4.running_mean f4 [32]
000000 8f 24 7e 3f 47 25 c0 bd 11 04 3f 3f c2 ec a9 3f
       0.99274534 -0.0938211 0.7461558 1.3275378
000010 1d 6f 98 3e 02 b6 a0 3f 17 e2 a4 3d 09 a2 8f 3e
       0.29772273 1.2555544 0.08050936 0.2805331
000020 34 b7 3a 3f b7 bd 5c 3f 14 dc 0a bf 80 39 e5 3e
       0.72935796 0.8622698 -0.5424206 0.44770432
000030 fe 99 c7 bf 3e c0 11 3f 28 2a 8b bf 61 48 53 bf
       -1.559387 0.56933963 -1.087224 -0.82532316
000040 18 72 d8 bf b0 b0 d7 bd 5d 8c 94 bf ea 17 ed 3c
       -1.6909819 -0.10531747 -1.1605335 0.028942067
000050 ba a5 14 be 7a 20 60 3f 36 30 44 3f f1 bb f7 3f
       -0.14516345 0.87549555 0.76636064 1.935423
000060 5a 58 89 bf 09 82 43 3e 1d 25 90 3e fa db 96 bf
       -1.0730088 0.19092573 0.28153315 -1.1785882
000070 21 1e 30 3e cc b6 46 bf b4 a9 7a 3f 6e e0 8a 3e
       0.17198993 -0.77622676 0.97915196 0.2712435

linear_segment.4.running_var f4 [32]
000000 9f 2d e6 3e 21 f3 f0 3e 79 c6 9c 3f 45 dc 43 3f
       0.4495668 0.47060493 1.2248069 0.7650798
000010 9d 34 3d 3f 44 7a ea 3e 47 8a 05 3f b5 a4 f3 3e
       0.73908406 0.45796406 0.5216412 0.475866
000020 6b 0a 8b 3e f2 bb b3 3e 03 f7 39 3f 67 fd 22 3f
       0.27156386 0.35104328 0.72642535 0.6366791
000030 95 94 ff 3e 3f af 1e 3f 65 38 9b 3f ac ac a5 3e
       0.49918047 0.61986154 1.2126585 0.323583
000040 87 87 02 3f fa 9c 37 3f 2c d1 58 3e 25 7a 3a 3f
       0.5098805 0.717239 0.21173543 0.7284263
000050 5a 59 79 3f 05 20 2f 3f ac 01 88 3f 75 2b 61 3e
       0.97401965 0.6840823 1.062551 0.21989234
000060 5d dc 7f 3e 7d 47 0f 3f 4c d9 bd 3e 4c 56 0e 3f
       0.24986406 0.5596846 0.37079847 0.5560043
000070 8a f3 c3 3e 74 2c da 3e 7d 57 03 3f 53 3b 03 3f
       0.38271743 0.4261204 0.5130537 0.51262397

linear_segment.6.weight f4 [32, 32]
000000 55 86 b2 3e 8e e2 38 3e 73 61 e7 3d 3e 2a 42 3e
       0.34868112 0.18055174 0.11297884 0.18961427
000010 e5 bf 71 3e 76 5b 06 3e 46 42 ac bd 41 86 f2 3d
       0.23608358 0.13120827 -0.08411078 0.11842013
000020 f0 96 71 be 53 5e e4 be 21 49 47 3d 3f da 9b bd
       -0.23592734 -0.44603214 0.048653726 -0.076099865
000030 44 46 4f be 1e 3c 94 bd bd b6 8a be f2 f8 25 3e
       -0.20241648 -0.07238029 -0.27092543 0.16208246
000040 76 2d 06 be 2c d7 ed bc 7c dc a6 3d 7c 1b 8e 3e
       -0.1310328 -0.029033266 0.08147523 0.27755344
000050 2c 7c e1 bd 33 a8 36 be 4e cc 45 3e db 53 8f be
       -0.11010012 -0.178376 0.19316217 -0.27993664
000060 a8 e0 0d 3e 46 6d 91 3c ca e3 6c be 86 c6 87 bd
       0.13855231 0.017752301 -0.2313377 -0.06629662
000070 cc dd 8e bd e5 79 5a 3d 67 c2 d4 3d fc 69 c4 be
       -0.06975898 0.053338904 0.10388642 -0.3836211
000080 2b 48 90 be 43 14 31 be 12 05 98 3e bd 70 49 bd
       -0.2818006 -0.17292885 0.29691368 -0.04917978
000090 46 ed 08 3e 6e a8 65 3e ac d0 6a be 1d 06 ce bd
       0.13371763 0.22427532 -0.22931165 -0.1005976
0000a0 97 07 b4 3d 61 9d b3 3d 75 1e 5b ba 7d 17 94 bc
       0.0879051 0.08770252 -0.00083587255 -0.018077606
0000b0 77 2c 7a be b3 73 9c bd 2d cf c9 be f2 19 24 bd
       -0.24431024 -0.076392554 -0.39415875 -0.040063806
0000c0 cd 6c 9f be 06 b9 4c 3e 9f 19 17 be a9 e9 75 3e
       -0.31137696 0.19992456 -0.14755867 0.24014916
0000d0 94 16 df 3d c5 75 a5 3b da dd 24 3e a5 f3 8e be
       0.10892978 0.0050494396 0.16100255 -0.2792026
0000e0 fc 9f ee bd bb ab 31 3e e7 24 8b be 58 07 9d be
       -0.11651608 0.17350666 -0.27176592 -0.30669665
0000f0 3b 12 17 3d f9 95 ef bd 1c cb d9 bc 47 26 c5 bd
       0.03688262 -0.11698527 -0.026586108 -0.096264414
000100 69 c1 6b be 08 ca 21 3e 69 8a bc be 76 64 8a be
       -0.23022999 0.15799725 -0.3682435 -0.2702977
000110 2f 1f b7 be 76 98 89 be 76 c6 49 bd 0f 3f 98 bd
       -0.3576598 -0.2687413 -0.049261533 -0.074339025
000120 f9 29 55 bd bc ee 91 be 12 b2 83 bd 4e 62 91 bd
       -0.05204198 -0.28502452 -0.064304486 -0.07098828
000130 b1 c1 4a bd e6 6b 5a 3d 2d 36 8b 3e d0 b4 1a 3e
       -0.049501125 0.053325556 0.2718977 0.15108037
000140 4f 03 bf be f1 f6 be bd 5e 18 8d bc e9 e7 4a 3e
       -0.37307212 -0.09324444 -0.017223533 0.19815029
000150 5c 7a ba 3b 3a f9 cc 3d ee ca 5e 3e 05 7f 0a 3e
       0.005690856 0.10008474 0.21757099 0.13525017
000160 79 5e 1c 3e cc ac 8c bd 6c 01 69 be 7b 70 88 3e
       0.15270413 -0.06868896 -0.22754449 0.26648316
000170 da 34 8f 3e a1 48 51 be 39 df d5 bd 3d bb 07 bd
       0.2797001 -0.20437862 -0.10442967 -0.03313755
000180 66 ec 0f 3e 27 a0 7f 3e ff 6d 12 be b6 d3 ba 3e
       0.14055023 0.24963437 -0.14299773 0.36489648
000190 6f b9 ed bd 0a a7 0d 3d b2 a4 67 3e 83 36 2c 3d
       -0.11607634 0.03458313 0.2262142 0.042044174
0001a0 9f 78 db 3c cf 88 90 bc 60 af 80 3a 63 c7 1a bf
       0.026790915 -0.01764336 0.0009817891 -0.6046049
0001b0 e7 88 01 be c9 7f 4c be 0c 3a 98 bd e5 2a d0 3d
       -0.1264988 -0.19970621 -0.074329466 0.101644315
0001c0 84 95 8b be 92 7f c8 3d 24 b0 22 be 2d bf 17 3e
       -0.2726251 0.09789957 -0.15887505 0.14819022
0001d0 6d 89 e2 3d a1 44 82 be d2 1c 5e 3e 38 45 3f be
       0.11061368 -0.25442985 0.21690682 -0.18678749
0001e0 0f 81 6e bd 2b 07 3a 3e 71 4b 0d be e9 c4 0a bd
       -0.05822855 0.18166797 -0.1379831 -0.033879194
0001f0 6b c9 ce 3d fa 07 83 bd ba b2 79 be 0d f1 f5 bd
       0.10097011 -0.06398006 -0.24384585 -0.120088674
000200 f9 df 05 be 68 db 0c 3b 6f 94 cb 3d 1f 16 03 3e
       -0.1307372 0.002149308 0.09940421 0.12801407
000210 d3 2d 1b 3e ed d7 e0 3c 50 22 10 be 58 4e a8 3e
       0.151542 0.027446711 -0.14075589 0.32872272
000220 bd 0d 29 3e 0a 9a 8b be c9 e4 22 be 06 ff 75 bc
       0.16509147 -0.2726596 -0.15907587 -0.015014416
000230 3e c1 82 bd 36 bb 6e 3c a0 1e 0f bf a2 2f 0c 3e
       -0.06384514 0.014571002 -0.55906105 0.13690045
000240 dd 71 83 bd 62 74 5a 3d 62 b7 7c be 95 d8 ea bd
       -0.06418202 0.053333648 -0.2467933 -0.11467091
000250 ff 3b 85 be 47 e7 eb 3d b5 4b 75 3d 75 e7 d3 bd
       -0.26022336 0.11518722 0.059886653 -0.10346881
000260 f1 d3 32 bd 80 f5 d8 bd 46 9a 86 3d af d6 ca 3d
       -0.043659154 -0.105937004 0.06572394 0.09904229
000270 44 b2 fd 3e 51 98 e0 3b 58 75 34 3e 22 1a 08 3e
       0.49550068 0.006854095 0.17622888 0.13291219
000280 a6 80 87 bc fb 3a f6 bc e4 b3 9c bd 31 cc 20 3e
       -0.016540837 -0.030057421 -0.07651499 0.15702893
000290 ca 07 6d 3e e1 59 90 3e b8 2e 35 be c9 18 34 be
       0.23147503 0.28193572 -0.17693603 -0.1758758
0002a0 26 48 0b 3e 4a 46 5a 3d 3e 91 5a 3e 9d 9f 6a be
       0.13601741 0.05328969 0.21344468 -0.2291245
0002b0 a2 3f d4 bc 6e 66 1f be 09 63 17 3d 64 3b 8d ba
       -0.025909249 -0.15566418 0.03695968 -0.0010775146
0002c0 57 b0 58 be c7 19 a3 3e 6d d1 82 bd 4d d4 1f be
       -0.21161018 0.31855604 -0.06387601 -0.1560833
0002d0 6f 0d b8 3c f1 95 58 3e b4 fe b3 be 29 5a c0 bc
       0.022467343 0.21150948 -0.3515526 -0.023480492
0002e0 4a 7e b4 be e9 1f 72 3d fa 4d 7a be 2f 29 d9 3c
       -0.352526 0.059112463 -0.24443808 0.026508896
0002f0 50 e6 11 be 65 7f a8 3e 64 3b 1f 3d 28 25 35 be
       -0.14248013 0.32909694 0.038875 -0.17689955
000300 8d 91 de bd 57 4c 05 be 01 4e 72 bd d2 38 75 bd
       -0.10867605 -0.13017403 -0.05915642 -0.05986864
000310 11 04 8b 3c 9f fe 40 be 64 e7 3f be fa c9 24 be
       0.016969712 -0.1884713 -0.18740612 -0.16092673
000320 aa 6e a2 3c 7a aa c4 be 58 08 71 3d ed 7e b3 3e
       0.01982816 -0.38411313 0.058845848 0.35057774
000330 62 3b 9e bd 62 b4 a2 bd 9b c5 dd bd a7 73 98 be
       -0.0772617 -0.079445615 -0.10828706 -0.29775736
000340 2c 46 7f be 19 79 51 3e bd 5f aa bd ef 32 6e 3e
       -0.24929112 0.20456351 -0.08319042 0.23261617
000350 bf 45 0b 3d 7f 5b c6 3d 55 8e 66 3e 87 b1 b8 be
       0.034002062 0.0968542 0.22515233 -0.36072943
000360 dd ee a2 3c e9 ce 19 3e 90 9c a8 3d d0 3f 22 be
       0.01988929 0.15020336 0.08232987 -0.15844655
000370 fc 89 84 bb 45 48 de 3c 22 2a 28 bd e5 13 f9 3e
       -0.0040447693 0.02713407 -0.041055806 0.4864799
000380 98 bc c8 bd c7 97 34 3e d1 3a 1d bc f0 4c be 3e
       -0.098015964 0.17636023 -0.009596542 0.37168074
000390 5a 13 c8 3c 38 42 67 bd 0a 6c 47 3e 3b 9d fb bd
       0.02442329 -0.056459635 0.19474807 -0.12285849
0003a0 01 ed a9 3d 66 26 07 be 6d fb c5 3c 8d 0c 26 be
       0.08297158 -0.13198242 0.02416774 -0.16215725
0003b0 99 be 7e 3e 88 25 99 be ab c9 5c 3d 84 91 db bd
       0.24877395 -0.29911447 0.053903263 -0.10721114
0003c0 2b 29 fb bd 33 1e 52 3e 98 4f bd bc 14 aa 31 be
       -0.122637115 0.20519333 -0.023109242 -0.17350036
0003d0 39 f1 b6 bd 72 ea 04 3e 40 52 e6 be af f0 81 be
       -0.08932728 0.12980059 -0.44984627 -0.2537894
0003e0 f5 7d 8b 3e f9 de fd 3e cb cf 85 be 42 ce 1b be
       0.27244535 0.49584177 -0.26135096 -0.152154
0003f0 ed eb a5 3b 23 74 03 3e 99 58 8c 3d d6 a6 b8 3c
       0.005063525 0.12837271 0.06852836 0.022540491

linear_segment.6.bias f4 [32]
000000 cc 92 19 3e f6 92 03 3e 14 d3 35 3e 84 a6 13 be
       0.14997405 0.1284903 0.17756301 -0.1441899
000010 7c bf 8b 3c 1d 6d 94 3d 74 89 25 be d0 a4 86 bd
       0.01705908 0.07247374 -0.16165715 -0.06574404
000020 76 3b 01 be b9 e6 8b bc c7 b5 c7 bd 9d 11 42 bd
       -0.12620339 -0.01707779 -0.09751468 -0.04738008
000030 6d d5 4e bd 3f ec 8e bc 97 05 05 be 74 56 83 bc
       -0.050496507 -0.017446635 -0.12990414 -0.016032435
000040 a0 85 13 3e f1 e8 20 be 50 c2 91 bd 3d 5a b9 3d
       0.14406443 -0.1571386 -0.0711714 0.09050415
000050 ec 66 4b 3d 8a ea 4b 3d 62 06 9f 3d ee d7 50 bd
       0.0496587 0.04978422 0.07764889 -0.050987177
000060 77 a2 0b bd a7 92 20 3e 42 97 28 bd 40 92 fb bd
       -0.034090485 0.15680943 -0.041159876 -0.12283754
000070 6e 98 23 3e 1c 78 be bd d7 37 c2 3b e3 c6 7e bd
       0.15976116 -0.09300253 0.005927067 -0.062201392

linear_segment.7.weight f4 [32]
000000 43 a5 72 3f 40 99 87 3f 01 0d 7a 3f 54 fb 9a 3f
       0.9478342 1.0593643 0.9767609 1.2107949
000010 4f 29 80 3f d9 35 81 3f 20 60 82 3f 7b 56 6c 3f
       1.0012606 1.0094558 1.0185585 0.9231946
000020 d0 cf 74 3f 32 15 55 3f 8b 83 93 3f ac 03 8f 3f
       0.95629597 0.83235466 1.1524519 1.1172996
000030 3b f6 7d 3f fc ab 81 3f 4c 67 7c 3f 5a 20 57 3f
       0.9920384 1.013061 0.9859512 0.8403374
000040 5f 2f 87 3f a9 1e 77 3f 39 d7 6c 3f 7f f3 6f 3f
       1.0561332 0.9653116 0.92515904 0.9373092
000050 1f 38 6c 3f 54 48 7b 3f b4 08 78 3f 40 4b 55 3f
       0.92273134 0.9815724 0.9688828 0.8331795
000060 d5 f4 72 3f 43 23 7e 3f b9 53 7e 3f 64 fd 61 3f
       0.94904834 0.99272555 0.993465 0.8827727
000070 22 8a 63 3f a4 16 84 3f 0c 9c 85 3f d5 20 7f 3f
       0.8888265 1.0319409 1.0438247 0.9965947

linear_segment.7.bias f4 [32]
000000 b8 ed f2 3d bb bc 0d be e9 64 99 bd 93 79 69 3e
       0.118617475 -0.13841526 -0.0748995 0.22800283
000010 61 f7 27 be e5 33 9e bd a3 f8 cb 3d f9 d8 d9 3e
       -0.16402961 -0.07724742 0.09959533 0.4254835
000020 a2 77 69 be 64 80 0d 3f 7e 40 c0 bd 15 71 ef 3d
       -0.22799543 0.55274034 -0.09387301 0.116914906
000030 92 e7 68 be df e2 1d 3e b8 71 14 be 85 1f fb 3e
       -0.22744587 0.15418576 -0.14496505 0.49047485
000040 72 0a 88 3d 99 ed 16 3f 0c 0c 06 bf dc 92 f5 3e
       0.06642617 0.58956295 -0.5236213 0.47963607
000050 88 e0 b5 be 1f 41 d8 3e f1 90 ba 3e 7f 83 7f 3e
       -0.35522866 0.42237183 0.36438707 0.24952506
000060 50 4d 04 3f 23 24 89 3e 8b 73 dd be 6b be 79 be
       0.5168047 0.26785383 -0.43252215 -0.24389045
000070 5f 32 1f 3f cc 2f ab 3d 0f 47 00 be f9 df af be
       0.62186235 0.08358726 -0.12527107 -0.34350565

linear_segment.7.running_mean f4 [32]
000000 95 74 96 be 3b 64 4d bf 42 48 77 be 89 f6 f0 be
       -0.2938582 -0.80231065 -0.24148658 -0.4706309
000010 31 ca ad bd 34 74 42 be b6 64 8e be 4b 6c 04 3e
       -0.084858306 -0.1898964 -0.2781121 0.12931935
000020 00 69 55 3d 7d 57 4a bf 29 32 c3 be ad 2a f9 3e
       0.05210209 -0.79039747 -0.38124207 0.48665372
000030 4a 39 43 bf ba 20 64 bf 1e 0f 32 bf 6b ef 3a bf
       -0.7625929 -0.89112437 -0.69554317 -0.7302157
000040 e8 ee b5 3e ac 92 d5 3e b3 ce f4 3e 89 0b 4c bf
       0.35533834 0.41713464 0.4781395 -0.797051
000050 bc 6f 18 3e 40 7e 81 3c f3 ca 49 bf 68 e5 06 bf
       0.14886373 0.015807271 -0.788253 -0.52693796
000060 71 62 3f be 3f 56 cb bd fc eb f5 3c c7 8d 4c bf
       -0.18689896 -0.099285595 0.030019753 -0.79903835
000070 6a 0b 52 bf 1b c6 07 3f 32 d0 1f bf fb 99 b0 3e
       -0.82048666 0.5303666 -0.62427056 0.34492478

linear_segment.7.running_var f4 [32]
000000 e1 81 f1 3e 1c 9a 8c 3f 56 33 51 3f ad 7b d1 3f
       0.47169402 1.098453 0.8171896 1.6365868
000010 a5 0d 67 3f e5 ce 31 3f 9b dc 46 3f 71 47 14 3f
       0.90255195 0.6945632 0.7768037 0.5792151
000020 c8 f5 04 3f a0 59 fe 3e d4 d5 c5 3f 42 8e c4 3f
       0.5193753 0.49677753 1.545588 1.5355914
000030 8e c8 52 3f 7c 6c af 3f c4 b9 00 3f ed 00 8d 3e
       0.8233727 1.3704982 0.50283456 0.2753977
000040 7a 31 6c 3f 21 6a 4a 3f a7 77 d6 3e 9a 5e 0f 3f
       0.92262995 0.7906819 0.41888162 0.56003726
000050 bc c4 03 3f 0e 13 73 3f 79 c8 5c 3f 97 eb c1 3e
       0.5147207 0.9495095 0.86243397 0.37875053
000060 cf 9c 5d 3f 7f d9 c9 3f be 28 ee 3e 3a 79 f6 3e
       0.86567396 1.57695 0.4651546 0.48139364
000070 86 f7 06 3f 5b 9a 94 3f e8 fd a8 3e 27 b4 15 3f
       0.5272144 1.1609606 0.33006215 0.58478016

linear_segment.9.weight f4 [10, 32]
000000 8e 4b 5d be 73 fe 82 3e 72 5d 8c bd 30 1a 86 3e
       -0.21610853 0.25584754 -0.06853761 0.26191854
000010 c8 36 19 3e 0f f7 5d 3e 79 f7 72 3e 47 69 80 3d
       0.14962304 0.21676277 0.23727216 0.0627008
000020 4f 74 64 3e 6d ec 17 be a0 b4 9e 3e 45 64 06 be
       0.22309993 -0.14836283 0.3099718 -0.13124187
000030 74 03 6b be 37 e3 79 be ee f9 90 3e 76 23 84 be
       -0.22950536 -0.24403082 0.2831568 -0.25808305
000040 34 46 32 be 8a d9 0f ba 48 13 d2 3c 46 28 65 be
       -0.17409593 -0.0005487433 0.02564396 -0.22378644
000050 93 69 53 3e f0 ee 49 be aa e6 65 3d cf fd 73 bd
       0.20645742 -0.19720054 0.05612818 -0.059568223
000060 47 93 50 be 11 9e 12 3e 87 fa 81 3e 8b 54 19 be
       -0.20368682 0.1431811 0.2538645 -0.14973657
000070 8c e1 1d bb 2f 81 f4 bd ff 88 1b be 4d d2 86 3e
       -0.0024090735 -0.11938702 -0.15188979 0.26332322
000080 9e e1 83 3e b9 5f ba 3e 97 b5 59 be 9a 78 ea 3e
       0.2575807 0.36401156 -0.21260677 0.45795137
000090 e8 d2 3c 3c d9 e6 a1 3c d1 cc b1 be 73 6f fc 3b
       0.011524893 0.019763397 -0.34726575 0.0077037155
0000a0 a7 bf 0f 3e d3 2d 37 be 4e 05 74 bd ac 95 92 be
       0.14037953 -0.17888574 -0.05957537 -0.28629816
0000b0 6d 1e 92 be 9d 11 31 be 08 85 c2 bd 78 e1 c4 3d
       -0.28538838 -0.17291875 -0.0949803 0.09613317
0000c0 7c bb 78 be 15 63 64 3c 8b 60 98 bd 7e 08 2c 3e
       -0.2429027 0.013939639 -0.07440289 0.16800115
0000d0 81 33 01 3e b3 16 d3 bd 9e ae 8d 3d ee 43 62 be
       0.12617303 -0.10307064 0.06918071 -0.22096226
0000e0 10 0d c7 3d 0e 27 96 be 78 f9 08 bc 82 a4 aa bd
       0.09719288 -0.2932667 -0.008360259 -0.083321586
0000f0 71 a1 31 3e 32 e1 7f bd e0 be 83 3e 3a 1c 0e be
       0.17346741 -0.062470622 0.25731564 -0.13877955
000100 27 b4 cf 3c 60 4f fd 3d 8e d8 ad bd 7e a6 6a be
       0.025354458 0.12368655 -0.0848857 -0.22915074
000110 65 36 05 3e af 12 72 3c 78 e4 b5 3d ba 8c 83 3e
       0.13009031 0.014774962 0.088814676 0.25693303
000120 2d df 81 be 77 56 ac bd c5 25 15 bc 06 2c 9e 3e
       -0.25365582 -0.08414929 -0.009103243 0.30892962
000130 ff 89 ef 3d 6f ec 0a 3e f6 38 30 be ee c9 4e 3c
       0.116962425 0.13566755 -0.17209229 0.012621386
000140 56 b3 d2 bd e3 20 1d be d2 7e bc 3e f5 46 2a 3e
       -0.10288112 -0.15344577 0.36815506 0.1662863
000150 2c c1 bd be f7 73 69 bd 7a d5 fb 3d 02 a9 2b bd
       -0.3706144 -0.05699536 0.12296577 -0.041909225
000160 02 00 81 3e 8b 6b c8 be 6e c9 08 3e 67 4e 10 3e
       0.25195318 -0.3914455 0.1335809 0.14092408
000170 07 dc 63 be fd e0 7e 3e 9b 21 82 bd 4b 88 88 3d
       -0.22251903 0.24890514 -0.06354066 0.06666621
000180 02 0d b3 bd 53 37 c4 bd 0d 08 82 3e 25 1d ab 3e
       -0.087427154 -0.09580865 0.25396767 0.33420673
000190 ca 94 04 3d 77 23 ef 3d 61 cf ef bd 4d f4 c9 3d
       0.03236846 0.11676686 -0.11709476 0.0986105
0001a0 3f 30 38 3e b6 93 1b 3d f7 66 9a 3e 36 fc 9b be
       0.17987154 0.037982665 0.3015668 -0.3046586
0001b0 47 85 a6 3d be e0 52 3e e6 66 8a be 0e 11 07 3e
       0.081308894 0.20593545 -0.2703163 0.131901
0001c0 f8 57 73 be 1e 97 88 3d fb e8 08 be a1 84 93 3d
       -0.23764026 0.06669448 -0.13370125 0.07203031
0001d0 8a 7b c3 bd 2f 78 fc bd 35 fe 93 be 19 7e 0e bd
       -0.095450476 -0.12327611 -0.28904882 -0.034788225
0001e0 03 d5 9b be b7 e4 46 3e 4e 50 f7 be 4d 5a 1e be
       -0.30435953 0.19423185 -0.48303455 -0.15464135
0001f0 01 e6 fc bd 59 e3 29 3d 97 f2 42 be cb dd 90 bd
       -0.12348557 0.04147658 -0.19037853 -0.07073554
000200 02 80 6f bd 66 99 2f bc 9a 4d 92 3e bb d1 8b 3e
       -0.058471687 -0.010717725 0.2857483 0.2730845
000210 8a fc 8e 3e 98 dc 74 be 09 a4 43 be 40 35 f7 bd
       0.27927047 -0.23912275 -0.19105543 -0.120707035
000220 db 3a b9 3d 7a 05 4a be 6c 34 67 be f6 af 4e bd
       0.09044429 -0.19728652 -0.22578591 -0.05046078
000230 ac b4 5f 3d 87 4e 87 3d cd a8 9c bd bd 1f f4 bd
       0.05461566 0.06606775 -0.07649384 -0.11920116
000240 56 94 79 be b0 3b 60 be 3f ce 8f be 1b 25 1d b9
       -0.24372992 -0.21897769 -0.2808704 -0.0001498651
000250 ff 68 61 bc b4 c5 b5 be ed 4b 94 be c8 45 1c 3e
       -0.013757943 -0.35502398 -0.28964177 0.15260994
000260 de b7 f6 bd b3 0b 0b bc d9 72 34 bd dc 17 55 3e
       -0.12046789 -0.008486676 -0.04405484 0.20809883
000270 82 42 98 3c 08 60 9f 3e 48 ed 9d 3d 5a 7c 8f be
       0.0185864 0.31127954 0.077112734 -0.2802456
000280 e7 f6 01 3e 5b 09 c2 bc 20 a3 0d bd df 0d 52 bd
       0.12691842 -0.023686102 -0.034579396 -0.05128276
000290 3c 51 ca 3e d0 dd 48 be 0f b2 14 3e c5 1b 49 bd
       0.39515102 -0.19615865 0.14521049 -0.04909875
0002a0 db 12 83 be 17 a6 bd 3b 83 67 27 be 72 38 1b bd
       -0.25600323 0.0057876217 -0.1634808 -0.037895627
0002b0 75 c7 13 3d a0 aa 6b bd f8 12 da 3d 1e 36 0e bd
       0.03607889 -0.057535768 0.10648149 -0.03471958
0002c0 a1 79 1c be 41 a9 ee 3e b9 d1 83 bd 6f ba 42 bc
       -0.15280773 0.46613505 -0.06436486 -0.01188527
0002d0 98 6c e8 bd b0 96 b9 be 03 7c 38 3e 6c d7 a5 3e
       -0.113488376 -0.36247778 0.18016057 0.32390916
0002e0 d7 7b 8f 3e 9c c0 fb bc 09 c8 08 3d d2 07 f8 3d
       0.2802417 -0.030731492 0.033393893 0.121108666
0002f0 9f b2 b2 bd cf 7d 82 be c9 4c 43 3e ed 90 0f bb
       -0.087254755 -0.2548661 0.1907226 -0.002190645
000300 33 3f 3a 3e 1f 09 76 be 52 0c a2 3e e5 cd c1 3d
       0.18188171 -0.24026917 0.31650025 0.094630994
000310 e1 61 9f 3d 13 81 03 3e e8 72 14 be ba 8c 90 3d
       0.07782341 0.12842207 -0.14496958 0.070580915
000320 b1 9c c1 bc 39 dc 4b 3e 12 6e a4 3e 16 b5 b2 be
       -0.023634287 0.19908227 0.32115227 -0.34903783
000330 7e 39 9a 3e a5 cd 8b 3e 18 66 52 be 57 78 bc 3d
       0.30121988 0.27305332 -0.20546758 0.092026405
000340 0b e0 90 bc f0 5c 48 3e 28 c5 19 3e 90 59 66 be
       -0.017684957 0.19566703 0.15016615 -0.22495103
000350 02 72 f2 3c eb 29 1a be 99 e4 b2 bd dc 50 e1 3c
       0.029595379 -0.15055053 -0.08735008 0.027504377
000360 56 7c c8 bd c7 bf 11 3c 12 b2 88 be 4c 36 0b be
       -0.0978934 0.008895821 -0.26698357 -0.13594931
000370 a2 b1 c9 bd 50 6c 19 3e f0 59 c6 be 04 95 4a 3e
       -0.09848334 0.14982724 -0.38740492 0.19783407
000380 51 c7 51 be 92 a9 77 3e 3f f4 1f bc ee 9f 14 3e
       -0.2048619 0.2418578 -0.009762823 0.14514133
000390 ea e5 f3 3d 49 4e 52 3d 18 5d 2e 3e 01 78 26 3e
       0.11909087 0.05134419 0.170277 0.16256715
0003a0 7e a0 fa 3c 5d 55 50 be 61 76 ac 3e b4 df 8d bd
       0.030594107 -0.20345064 0.33684066 -0.069274336
0003b0 0a c5 f3 bd b9 e5 3a 3e fb 84 3f be 3c 51 7a 3e
       -0.119028166 0.18251695 -0.18703072 0.24445051
0003c0 7f af b9 be 9e a6 51 3e 3a 5a 98 3d a3 a5 b1 3e
       -0.36266705 0.20473716 0.07439084 0.34696683
0003d0 90 21 91 bb c7 52 15 be c8 3e 2e be e6 59 fa bd
       -0.00442905 -0.14582358 -0.17016137 -0.12224178
0003e0 b2 6f 96 bd 74 2c 1b be 64 86 78 be 2e ad 08 3c
       -0.07345523 -0.15153676 -0.24270016 0.0083420705
0003f0 83 91 a4 be b1 e6 ad bd 16 aa 46 bd 0b a0 74 be
       -0.32142267 -0.084912665 -0.04850205 -0.23889177

linear_segment.9.bias f4 [10]
000000 86 ee f0 3d 45 bb 32 bd 61 73 22 3c 16 82 0c be
       0.11764245 -0.043635625 0.009915204 -0.13721499
000010 fc 05 63 bd 39 bf c8 bd dc 49 4b 3c a6 95 be 3d
       -0.05542563 -0.09802098 0.012407746 0.09305887
000020 64 3f 9f bb 60 d0 73 3d
       -0.0048598517 0.059524894

linear_segment.10.weight f4 [10]
000000 ce cb 78 3f 35 43 81 3f 36 3b 9e 3f 21 4e 9e 3f
       0.9718598 1.0098635 1.236182 1.2367593
000010 3f d6 5c 3f a8 2b 83 3f 7b dc c9 3f a5 3c 53 3f
       0.86264414 1.0247698 1.577041 0.8251441
000020 83 1d 91 3f cc e4 6d 3f
       1.1337131 0.9292724

linear_segment.10.bias f4 [10]
000000 56 07 2a be fc 41 c5 bd 5a 63 1c be 6a 38 93 3e
       -0.16604361 -0.09631726 -0.15272275 0.28753978
000010 1c 52 ad 3e c5 21 a7 be 70 66 da 3e 29 a7 ec 3e
       0.33851707 -0.32642952 0.4265628 0.46221283
000020 39 46 26 3f cd 57 4d be
       0.649509 -0.20053025

linear_segment.10.running_mean f4 [10]
000000 80 48 4d bd 33 5b 40 be 28 ea e6 3d ef 37 d2 be
       -0.05011797 -0.1878479 0.112751305 -0.410583
000010 08 51 58 bf 6e 8b 38 3e e7 a8 22 3e c9 4d 03 bd
       -0.84498644 0.18021938 0.15884744 -0.032056604
000020 f4 74 27 3f 69 f6 d6 bd
       0.6541283 -0.10496218

linear_segment.10.running_var f4 [10]
000000 f1 34 09 3f 3c e5 40 3f 77 f5 8e 3f f0 99 e2 3f
       0.5359641 0.75349784 1.116866 1.7703228
000010 be 02 11 3f 1f db 8e 3f 08 c1 ce 3f 6d 36 f1 3e
       0.5664481 1.116062 1.6152658 0.47111836
000020 27 cc 86 3f bf 65 39 3f
       1.0531052 0.7242088
